best_model.pth (torch, 574818 bytes, 57 tensors)

feature_proj.weight f4 [8, 1]
0	0x3e923d02	0.2856217
1	0xbee16f4f	-0.44030234
2	0xbf08150c	-0.53157115
3	0xbdfe3eee	-0.12414347
4	0x3f62c898	0.8858733
5	0xbecd24a4	-0.40067017
6	0x3d1f0025	0.038818497
7	0x3f4f5b9b	0.80999154

feature_proj.bias f4 [8]
0	0x3f45b18f	0.7722406
1	0x3d62f8be	0.055413
2	0xbf7961f6	-0.974151
3	0x3ea1d8c4	0.31610692
4	0x3f3ef4f4	0.7459252
5	0x3deae1bd	0.114688374
6	0xbe7eabbb	-0.24870197
7	0x3f54b59d	0.8308962

se3_transformer.conv_in.kernel_unary.(0,0).rp.net.0.weight f4 [128, 1]
0	0x3dc4da4d	0.0961195
1	0x3f667b92	0.90032303
2	0x3f69a321	0.9126454
3	0xbf42eb04	-0.76139855
4	0x3f2d0bd5	0.6759618
5	0xbe91b77f	-0.2846031
6	0xbf0bbb5f	-0.5458278
7	0x3e7f92bf	0.24958323
8	0x3f0b66dd	0.5445383
9	0x3f15234e	0.58256996
10	0xbf3bd49a	-0.7337128
11	0x3ee8eba0	0.45492268
12	0xbf4d5b8c	-0.80217814
13	0xbf7cff55	-0.98827106
14	0xbf49a760	-0.7877102
15	0x3e905895	0.28192583
16	0x3f04ed52	0.5192462
17	0xbc4e03bf	-0.012574135
18	0x3dd9a4f3	0.10627165
19	0xbef1e650	-0.47246027
20	0xbf17a4d7	-0.592359
21	0xbf2b9f57	-0.6704001
22	0x3f471c06	0.77777135
23	0x3e910da6	0.28330725
24	0x3f46f520	0.7771778
25	0x3f7e6c40	0.99383926
26	0x3e35e5bb	0.17763416
27	0xbed2c41c	-0.41165245
28	0xbecb182c	-0.3966688
29	0x3eab8fd3	0.33508167
30	0x3f6e351b	0.9304978
31	0xbf33cfea	-0.70239127
32	0xbf099120	-0.5373707
33	0x3f266614	0.6499951
34	0x3f172e41	0.5905495
35	0xbf593073	-0.8483955
36	0xbf7d7e79	-0.99021107
37	0x3ef4af66	0.47790068
38	0x3f323efa	0.69627345
39	0x3f43b4f9	0.7644802
40	0xbe82fca8	-0.25583386
41	0x3e091d14	0.13389999
42	0xbf7716c6	-0.96519125
43	0xbf47700e	-0.77905357
44	0x3f194575	0.5987161
45	0xbf3de2e2	-0.7417432
46	0xbf08dda1	-0.5346318
47	0xbf4cdccc	-0.8002441
48	0xbed1ff07	-0.41014883
49	0x3f55efc9	0.8356901
50	0x3f255577	0.64583534
51	0xbe830089	-0.25586346
52	0x3f2605d8	0.64852667
53	0x3ea91030	0.33020163
54	0x3f5d8701	0.86534125
55	0xbe9a21b1	-0.3010383
56	0x3f59f8ef	0.8514547
57	0x3f2ba57d	0.6704939
58	0x3f3309c7	0.69936794
59	0xbef74fbf	-0.4830303
60	0x3ec228e2	0.37921816
61	0x3f506fc8	0.81420565
62	0xbf2fa9f2	-0.6861869
63	0xbeceafb6	-0.40368432
64	0x3eae7af5	0.34078184
65	0xbe78fd0e	-0.24315283
66	0x3ecfd509	0.4059222
67	0x3f7cc826	0.987429
68	0xbdc7242a	-0.097236946
69	0x3ed5a9c2	0.41731077
70	0x3e6647b9	0.22488298
71	0x3e0fcda3	0.14043288
72	0xbdb762c0	-0.08954382
73	0xbe5b37bd	-0.21407981
74	0x3f6a645d	0.9155939
75	0xbe711d0d	-0.23546238
76	0x3f750190	0.9570551
77	0xbf18d7a5	-0.5970405
78	0xbf2b5a2a	-0.66934454
79	0x3e18cd83	0.14922146
80	0x3f7b1f64	0.98094773
81	0xbf19a335	-0.6001466
82	0xbf0f9d34	-0.5609925
83	0x3e3e0cbe	0.18559548
84	0x3e22aecd	0.15886994
85	0xbf428b31	-0.7599364
86	0xbf132ae9	-0.5748735
87	0xbe84ad48	-0.25913453
88	0x3f44d782	0.7689134
89	0x3f1a0d0e	0.6017617
90	0xbc8923e9	-0.016740756
91	0xbeb0012b	-0.3437589
92	0xbd85d178	-0.065340936
93	0xbecbe551	-0.39823392
94	0xbf5ee752	-0.87071717
95	0x3ce67f4c	0.028136872
96	0xbee6d4a9	-0.45084122
97	0x3f2d6724	0.67735505
98	0xbf54804e	-0.8300828
99	0x3f6f954c	0.93587184
100	0xbeead146	-0.45862788
101	0xbeb30d3d	-0.34971038
102	0xbf00a8af	-0.5025739
103	0xbec29098	-0.3800094
104	0xbf551339	-0.83232456
105	0xbed68b9b	-0.41903386
106	0xbeaac036	-0.3334977
107	0xbe89f116	-0.26941746
108	0xbe761696	-0.24032053
109	0x3f0b5ad1	0.5443545
110	0x3f37c3bb	0.71783036
111	0x3f662a08	0.89907885
112	0x3ef673e0	0.4813528
113	0xbf6366a4	-0.8882849
114	0xbe4dd649	-0.20101275
115	0x3b3cf466	0.0028832196
116	0x3f000046	0.5000042
117	0x3e8d7413	0.2762762
118	0x3ee296a1	0.44255546
119	0x3f44fcb8	0.7694812
120	0xbf4fe231	-0.81204516
121	0x3f3a2dd0	0.72726154
122	0x3f5a3d1d	0.852495
123	0xbf77d851	-0.9681445
124	0xbf792099	-0.97315365
125	0xbf7a8558	-0.97859716
126	0xbf1936c0	-0.59849167
127	0x3ea0f52f	0.3143706

se3_transformer.conv_in.kernel_unary.(0,0).rp.net.0.bias f4 [128]
0	0x3f23ccd3	0.6398441
1	0xbc95635c	-0.018235855
2	0x3e32fb91	0.17478777
3	0xbf3221f0	-0.69583035
4	0x3eb29798	0.34881282
5	0x3ed72a75	0.4202458
6	0x3e7032db	0.234569
7	0xbec493fd	-0.38394156
8	0x3f23ef66	0.6403717
9	0x3ec214f0	0.379066
10	0xbeda31a4	-0.42615998
11	0x3dddc330	0.10828245
12	0xbec22549	-0.3791907
13	0xbc183ced	-0.00929187
14	0x3e3151e1	0.1731639
15	0xbea0582f	-0.3131728
16	0xbf5272ac	-0.82206225
17	0x3ede1dbb	0.43382058
18	0x3d7339b0	0.059381187
19	0xbf119dcf	-0.5688142
20	0x3ecdda63	0.40205678
21	0x3f6a8b16	0.9161848
22	0x3d2b2c2d	0.041790176
23	0xbeb1ee90	-0.3475232
24	0xbef7d40a	-0.4840396
25	0x3f0ff24e	0.562291
26	0x3d87c074	0.066285044
27	0xbf774bdc	-0.9660013
28	0xbf7f7f59	-0.9980369
29	0x3f060a9b	0.5235993
30	0x3ee262bc	0.44215953
31	0xbf15ab3f	-0.58464426
32	0xbeedd0d8	-0.46448398
33	0x3f36f428	0.714663
34	0xbca33df7	-0.019927008
35	0xbed0a1ae	-0.40748352
36	0xbf44bdbd	-0.7685202
37	0x3f0eb5fa	0.55746424
38	0xbf458baf	-0.77166265
39	0xbeba0e7e	-0.36339182
40	0xbef3adc7	-0.4759352
41	0x3daefce5	0.085443296
42	0x3eac94f4	0.33707392
43	0x3f5f681f	0.8726825
44	0xbe0a0110	-0.13476968
45	0x3c64152f	0.013921066
46	0x3ed40539	0.41410235
47	0xbcc8db25	-0.024518559
48	0x3eef429a	0.467305
49	0x3e8fb37f	0.28066632
50	0x3ebd677f	0.36993024
51	0xbe69d167	-0.22833787
52	0x3e97b850	0.29632807
53	0x3ee4d1c6	0.44691294
54	0x3e7c1108	0.24615872
55	0xbd305493	-0.043049406
56	0xbf508949	-0.8145948
57	0x3a9e5e2c	0.0012082509
58	0x3d898d24	0.067163736
59	0xbe4c4379	-0.19947614
60	0xbf4d5400	-0.802063
61	0x3edf7eda	0.43651468
62	0xbdf22daf	-0.1182512
63	0x3ed7bd82	0.4213677
64	0xbf29da7b	-0.66349
65	0x3f363d99	0.7118774
66	0xbe8547cc	-0.2603134
67	0xbf3443cd	-0.70415956
68	0x3e154c12	0.145798
69	0xbd564f54	-0.052321747
70	0xbe879ec5	-0.2648832
71	0xbf550ed9	-0.8322578
72	0xbe8dfbd1	-0.27731183
73	0xbea979df	-0.33100793
74	0xbf0130cd	-0.5046509
75	0x3f620005	0.8828128
76	0xbee17e88	-0.44041848
77	0x3d997a6a	0.07494052
78	0x3db2f394	0.08737865
79	0x3ed5baab	0.4174398
80	0xbeae518f	-0.340466
81	0x3f0a9555	0.5413411
82	0xbef7e622	-0.48417765
83	0xbcac8563	-0.021059697
84	0xbc512861	-0.012765975
85	0x3e73b4b3	0.237994
86	0xbe67ddd8	-0.2264322
87	0xbe871631	-0.26384118
88	0x3ece394d	0.40278092
89	0xbeb8e387	-0.3611109
90	0x3eb7f3a1	0.35928062
91	0xbf7177af	-0.9432325
92	0x3d33f8b8	0.04393837
93	0xbf1ca0eb	-0.6118304
94	0xbe593ea4	-0.21215302
95	0xbe2b16f0	-0.16707969
96	0x3e8d2047	0.27563688
97	0x3f4ff575	0.8123391
98	0x3ecf4eb8	0.40489745
99	0x3f2955b8	0.6614642
100	0x3e0393d2	0.12849358
101	0x3ebcd898	0.36883998
102	0x3da1cdde	0.07900594
103	0xbf3abdba	-0.7294575
104	0x3ec6c780	0.3882408
105	0xbf0b3ec7	-0.54392666
106	0xbf612ce9	-0.8795915
107	0xbf20f845	-0.6287883
108	0xbda270ff	-0.079317085
109	0xbf0f6a88	-0.5602193
110	0xbf39ab2f	-0.7252683
111	0x3f1e412e	0.61818206
112	0xbdd16272	-0.10223855
113	0x3eff9e20	0.49925327
114	0x3ef55d19	0.4792259
115	0xbefba103	-0.4914628
116	0xbef6d422	-0.4820872
117	0x3f413b26	0.7548088
118	0x3b19e24b	0.0023480828
119	0x3f4cc7ff	0.7999267
120	0x3f3e34ac	0.7429912
121	0x3f75988a	0.9593588
122	0x3f1f2af3	0.6217491
123	0x3e78eae0	0.24308348
124	0x3f14c8e8	0.5811906
125	0x3ecbddbb	0.39817604
126	0xbf5960e3	-0.8491346
127	0x3de48364	0.11157873

se3_transformer.conv_in.kernel_unary.(0,0).rp.net.1.weight f4 [128]
0	0x3f7ebb32	0.9950439
1	0x3f7eb860	0.99500084
2	0x3f7eb64f	0.9949693
3	0x3f7eb888	0.9950032
4	0x3f7eb92f	0.9950132
5	0x3f7ebb0f	0.9950418
6	0x3f809ea0	1.0048409
7	0x3f80a451	1.0050145
8	0x3f80a3ba	1.0049965
9	0x3f7eb784	0.9949877
10	0x3f80a72e	1.0051019
11	0x3f7eba40	0.99502945
12	0x3f7eb98b	0.99501866
13	0x3f7ebc27	0.9950585
14	0x3f80a27b	1.0049585
15	0x3f80a3b1	1.0049955
16	0x3f7f5e03	0.99752825
17	0x3f7eb93b	0.9950139
18	0x3f7eba26	0.9950279
19	0x3f7ebaaf	0.99503607
20	0x3f80ae1f	1.0053138
21	0x3f7eba12	0.9950267
22	0x3f80a4ff	1.0050353
23	0x3f7eb89a	0.9950043
24	0x3f7ebb81	0.9950486
25	0x3f80a285	1.0049597
26	0x3f80a2d2	1.0049689
27	0x3f7eb8a0	0.99500465
28	0x3f7ebd09	0.99507195
29	0x3f80a397	1.0049924
30	0x3f80a326	1.0049789
31	0x3f7eb38b	0.9949271
32	0x3f7eb997	0.9950194
33	0x3f7eb909	0.9950109
34	0x3f80a449	1.0050136
35	0x3f80a326	1.0049789
36	0x3f80a34e	1.0049837
37	0x3f80a3fd	1.0050045
38	0x3f7eb6c9	0.9949766
39	0x3f7eb5ba	0.9949604
40	0x3f7eb9d9	0.9950233
41	0x3f80a3fa	1.0050042
42	0x3f80a41b	1.0050081
43	0x3f80a47e	1.0050199
44	0x3f80a43c	1.005012
45	0x3f809f08	1.0048532
46	0x3f7ebc0f	0.99505705
47	0x3f809f06	1.004853
48	0x3f7eb9d1	0.99502283
49	0x3f80a48f	1.0050219
50	0x3f80a2b9	1.0049659
51	0x3f7eb948	0.99501467
52	0x3f7ebb24	0.99504304
53	0x3f80a3b9	1.0049964
54	0x3f80a112	1.0049155
55	0x3f7eb33c	0.9949224
56	0x3f7ed8f2	0.9954978
57	0x3f80a3aa	1.0049946
58	0x3f7eb82c	0.99499774
59	0x3f80a6a4	1.0050855
60	0x3f7eabf9	0.9948116
61	0x3f80a2d5	1.0049692
62	0x3f80a3e2	1.0050013
63	0x3f80a2d5	1.0049692
64	0x3f7f3893	0.996957
65	0x3f7eba62	0.9950315
66	0x3f80a4ac	1.0050254
67	0x3f80a419	1.0050079
68	0x3f80a403	1.0050052
69	0x3f80a3ac	1.0049949
70	0x3f7eb903	0.99501055
71	0x3f80a305	1.004975
72	0x3f7eba14	0.9950268
73	0x3f7eba01	0.9950257
74	0x3f80a9a1	1.0051767
75	0x3f7ebfe4	0.9951155
76	0x3f7eb338	0.99492216
77	0x3f80a404	1.0050054
78	0x3f7eb9be	0.9950217
79	0x3f7ebb40	0.9950447
80	0x3f80a26b	1.0049566
81	0x3f7ebe7c	0.99509406
82	0x3f7ebfdc	0.99511504
83	0x3f7eb89c	0.9950044
84	0x3f80a433	1.005011
85	0x3f80a562	1.0050471
86	0x3f7eb906	0.99501073
87	0x3f80a3dd	1.0050007
88	0x3f80a44a	1.0050137
89	0x3f7ea9e6	0.99477994
90	0x3f80a364	1.0049863
91	0x3f80a3bf	1.0049971
92	0x3f7eb6e4	0.9949782
93	0x3f7eb7a5	0.9949897
94	0x3f7eb9e7	0.99502414
95	0x3f80a34b	1.0049833
96	0x3f7eb26d	0.99491006
97	0x3f7eb6ee	0.9949788
98	0x3f80b338	1.0054693
99	0x3f7eb6cc	0.99497676
100	0x3f7eb916	0.9950117
101	0x3f80a206	1.0049446
102	0x3f80abca	1.0052426
103	0x3f7eb9c9	0.99502236
104	0x3f7eb849	0.99499947
105	0x3f7eb784	0.9949877
106	0x3f7eb6b2	0.9949752
107	0x3f80a335	1.0049807
108	0x3f7eb88f	0.99500364
109	0x3f7ebefc	0.9951017
110	0x3f80a55b	1.0050462
111	0x3f80a317	1.0049771
112	0x3f7eb9de	0.9950236
113	0x3f7eb753	0.9949848
114	0x3f80a94d	1.0051666
115	0x3f7eae4d	0.9948471
116	0x3f7ebb1a	0.99504244
117	0x3f80a090	1.0049
118	0x3f7eabc8	0.9948087
119	0x3f80a322	1.0049784
120	0x3f7eba37	0.9950289
121	0x3f80a2dd	1.0049702
122	0x3f7ebf8c	0.9951103
123	0x3f7ebc87	0.9950642
124	0x3f7eaf4b	0.99486226
125	0x3f80a932	1.0051634
126	0x3f80a3c9	1.0049983
127	0x3f7eb87c	0.9950025

se3_transformer.conv_in.kernel_unary.(0,0).rp.net.1.bias f4 [128]
0	0xbba2bf6f	-0.0049666683
1	0xbba3aac7	-0.0049947235
2	0xbba4c387	-0.0050281915
3	0x3ba3b19e	0.004995539
4	0xbba35f89	-0.004985754
5	0xbba29a60	-0.0049622506
6	0xbba37c7b	-0.0049892045
7	0xbba57a9f	-0.005050018
8	0x3ba3b77d	0.0049962387
9	0xbba46071	-0.0050163795
10	0xbba72518	-0.0051008575
11	0xbba29bfc	-0.0049624424
12	0x3ba308c1	0.004975409
13	0x3ba19f1d	0.004932298
14	0xbba05df3	-0.004894012
15	0xbba3bbec	-0.0049967673
16	0xbbae8240	-0.0053255856
17	0xbba349f4	-0.004983181
18	0xbba32b5b	-0.0049795336
19	0x3ba2a6d5	0.0049637356
20	0x3ba63357	0.005072038
21	0xbba33079	-0.0049801436
22	0x3ba4b3a7	0.005026299
23	0x3ba4614b	0.005016481
24	0xbba34d36	-0.0049835695
25	0x3ba25653	0.0049541383
26	0x3ba2dbc6	0.0049700467
27	0x3ba3c0ea	0.0049973624
28	0x3ba0e706	0.0049103526
29	0x3ba3948c	0.0049920734
30	0x3ba33749	0.0049809557
31	0x3ba61f9a	0.005069685
32	0x3ba3342e	0.0049805855
33	0xbba37b23	-0.0049890443
34	0x3ba4814e	0.005020297
35	0xbba2ca0f	-0.004967935
36	0xbba35026	-0.0049839197
37	0x3ba3fa33	0.0050041913
38	0x3ba2f36a	0.004972865
39	0xbba3844b	-0.004990136
40	0x3ba317af	0.0049771885
41	0x3ba407ca	0.0050058113
42	0xbba30464	-0.0049748886
43	0x3ba3fc12	0.0050044144
44	0x3ba38eae	0.004991374
45	0xbba08364	-0.0048984755
46	0xbba3164a	-0.0049770223
47	0xbb9e52d6	-0.004831652
48	0xbba387e3	-0.004990564
49	0x3ba4b224	0.005026119
50	0x3ba2b1da	0.004965049
51	0x3ba3581a	0.0049848678
52	0xbba26dfd	-0.0049569593
53	0x3ba3c159	0.004997414
54	0x3ba0d950	0.004908718
55	0x3ba63e6d	0.0050733597
56	0xbbac1c85	-0.005252423
57	0x3ba39e99	0.0049932715
58	0xbba44571	-0.005013161
59	0xbbaa5a57	-0.0051987576
60	0x3bab5e3a	0.0052297385
61	0x3ba2dc07	0.004970077
62	0xbba3b77a	-0.0049962373
63	0x3ba3026b	0.0049746535
64	0xbbacabba	-0.005269495
65	0xbba2c9cc	-0.0049679037
66	0x3bce8d15	0.0063034394
67	0x3ba32f2a	0.0049799876
68	0x3ba46439	0.0050168303
69	0x3ba42687	0.0050094756
70	0x3ba33e37	0.004981782
71	0xbba2b088	-0.004964892
72	0x3ba2ccea	0.0049682753
73	0x3ba2fecd	0.0049742223
74	0x3ba538d9	0.005042177
75	0xbba1b087	-0.004934374
76	0xbba463b1	-0.005016767
77	0xbba47c41	-0.005019695
78	0x3ba30be9	0.004975785
79	0xbba2aac7	-0.004964206
80	0x3ba2ffe3	0.0049743517
81	0xbba26d5d	-0.004956885
82	0x3b9fe5fe	0.004879712
83	0xbba344e5	-0.004982578
84	0x3ba423e9	0.0050091636
85	0xbba440fa	-0.0050126286
86	0x3ba38099	0.0049896953
87	0xbba3db6c	-0.0050005224
88	0x3ba41478	0.005007323
89	0x3b957020	0.0045604855
90	0x3ba3793a	0.0049888166
91	0xbba3b0b3	-0.0049954294
92	0x3ba37442	0.0049882242
93	0x3ba430ab	0.0050106845
94	0x3ba335cf	0.0049807797
95	0xbba3c99f	-0.0049984003
96	0x3ba326ec	0.004979005
97	0xbba48b6f	-0.0050215046
98	0x3ba37463	0.0049882396
99	0xbba4a663	-0.0050247177
100	0x3ba3e81f	0.005002036
101	0x3ba2ce44	0.0049684364
102	0xbbbcee48	-0.00576571
103	0x3ba31d7a	0.004977879
104	0x3ba32538	0.004978802
105	0x3ba43ccf	0.0050121318
106	0x3ba4b6dd	0.005026682
107	0xbba32db8	-0.0049798153
108	0x3ba37814	0.0049886797
109	0x3b9e8b0c	0.004838353
110	0xbba4b7b4	-0.005026782
111	0x3ba2c1c1	0.004966945
112	0xbba33d2c	-0.0049816575
113	0xbba35b53	-0.004985252
114	0x3ba8666c	0.0051391628
115	0x3ba8c9c6	0.0051510064
116	0x3ba4748d	0.0050187767
117	0x3ba1dedb	0.0049398965
118	0xbbab8c2e	-0.0052352166
119	0x3ba31ad0	0.0049775615
120	0xbba35363	-0.0049843057
121	0x3ba2ab73	0.004964286
122	0xbb9f98b3	-0.004870498
123	0x3ba43e2b	0.005012294
124	0xbba4a9ed	-0.0050251395
125	0xbba2eee0	-0.004972324
126	0xbba3c66f	-0.0049980204
127	0xbba38cad	-0.004991135

se3_transformer.conv_in.kernel_unary.(0,0).rp.net.3.weight f4 [128, 128]
0	0x3d1541d9	0.03643975
1	0x3d2f6812	0.04282386
2	0xbd37f71f	-0.044913407
3	0x3dbc72cf	0.092015855
4	0x3da4ce2b	0.08047136
5	0xbcf262e5	-0.029588172
6	0xbd00f67f	-0.031485077
7	0x3ca79200	0.02045536
8	0x3d3e0603	0.046392452
9	0xbd1f91b5	-0.038957316
10	0xbb9db90f	-0.0048133205
11	0x3d9378a6	0.07200746
12	0x3d1d2133	0.03836174
13	0x3ca4c5a9	0.020113783
14	0x3ccc02d0	0.024903685
15	0xbd06b3d8	-0.032886356
16	0xbadf584c	-0.0017039864
17	0x3cf9c366	0.030488681
18	0xbd222e9f	-0.039595243
19	0x3c8c5ff2	0.017135594
20	0x3ca04ba2	0.019567315
21	0x3d0e0211	0.03466994
22	0x3d4ad7b5	0.04952212
23	0x3cefd99c	0.029278569
24	0xbb4741fa	-0.0030404315
25	0xbd700b69	-0.05860463
26	0xbd88c22d	-0.06677661
27	0x3d8052d7	0.062658004
28	0x3d9b1294	0.07571903
29	0xbd354396	-0.044253908
30	0x3d11a774	0.035560086
31	0x3ce25bbc	0.027631633
32	0x3d48ac18	0.048992246
33	0x3d7c341e	0.06157314
34	0x3d94c4b2	0.07264079
35	0x3cf4a59d	0.029864127
36	0x3d758847	0.059944417
37	0xbd8ebdb4	-0.06969777
38	0x3ca1cdb5	0.01975141
39	0xbd9515c9	-0.07279546
40	0x3da85e18	0.08221072
41	0xbc868865	-0.01642246
42	0x3d343559	0.04399619
43	0xbd124a12	-0.03571517
44	0x3d863788	0.065535605
45	0x3d82faad	0.06395469
46	0x3d3fc4fc	0.04681872
47	0x3d06c07e	0.03289842
48	0x3da9a6f8	0.082838
49	0xbd97f334	-0.07419434
50	0xbce9aef7	-0.028525813
51	0xbb90ab91	-0.0044149836
52	0xbc07afa8	-0.008281626
53	0x3cafbf8d	0.021453643
54	0x3b6c4ba8	0.0036055837
55	0x3c7b61cb	0.01534314
56	0xbcab3133	-0.020897483
57	0xbcc3948c	-0.023874544
58	0xbcb582e1	-0.022157134
59	0x3ae660a8	0.0017576413
60	0x3d4f8999	0.050668333
61	0xbd9c8449	-0.07642419
62	0xbd095526	-0.03352847
63	0x3d5f4485	0.054508705
64	0x3cc850b9	0.024452554
65	0xbd7a93fd	-0.06117629
66	0x3911e260	0.00013912609
67	0x3d8b42dc	0.06799862
68	0xbd8c5f3e	-0.068541035
69	0x3c9569ac	0.018238865
70	0x3d26bcc3	0.04070736
71	0x3d702a7c	0.058634266
72	0xbd635018	-0.055496305
73	0xbd6a8b47	-0.05726173
74	0x3ba040c6	0.004890534
75	0xbc24a04f	-0.010047986
76	0xbdb1bfba	-0.08679147
77	0x3d370236	0.044679843
78	0x3cfe856c	0.03106948
79	0x3d0d1c1d	0.03445064
80	0xbd12d9f9	-0.035852406
81	0xbd5f92b1	-0.054583255
82	0xbc24f76b	-0.010068755
83	0xbd023846	-0.031791948
84	0xbd0d4fe1	-0.034500007
85	0xbd68aed6	-0.05680736
86	0xbd988749	-0.074476786
87	0x3d54535f	0.05183732
88	0x3d4fb23e	0.050707094
89	0xbc4a38c8	-0.012342639
90	0x3d16a7c9	0.036781106
91	0xbd9fa36d	-0.07794843
92	0xbcfb0b3f	-0.030645011
93	0xbbb9cfbb	-0.0056705154
94	0xbcfe15bb	-0.031016221
95	0xbda15fb8	-0.07879585
96	0x3d8e82a8	0.069585145
97	0x3d7e7f6a	0.06213323
98	0x3d2e13df	0.04249942
99	0xbcb6b66b	-0.02230378
100	0xbd81ac6a	-0.063317135
101	0xbd1c0ecc	-0.03810005
102	0xbc542a38	-0.012949519
103	0xbcd1df80	-0.025619268
104	0x3d8b8ae4	0.06813601
105	0x3cfdf5d6	0.031001013
106	0x3d7a2885	0.0610738
107	0xbd8df0d3	-0.06930699
108	0x3d96ba1b	0.073597156
109	0x3b1080c9	0.0022049418
110	0xbc3d94e8	-0.011571147
111	0xbbe9cd98	-0.0071351044
112	0x3d135a25	0.03597464
113	0x3cf99eb7	0.030471189
114	0x3d8a726c	0.067601055
115	0xbda1f043	-0.079071544
116	0xbda22506	-0.07917218
117	0x3cc72602	0.024310116
118	0xbda691d8	-0.08133286
119	0x3d856aeb	0.065145336
120	0xbd1c7a72	-0.03820271
121	0xbcbe4c48	-0.023229733
122	0xbbd94b91	-0.0066313227
123	0x3d1cb843	0.038261663
124	0x3d4d99de	0.050195567
125	0xbd0839ab	-0.03325812
126	0xbd3e8d49	-0.04652146
127	0x3cf51873	0.029918885
128	0xbd0535e4	-0.032522097
129	0x3cbc06b6	0.022952419
130	0xbce62b1b	-0.028096726
131	0x3d693073	0.05693097
132	0xbd50a304	-0.050936714
133	0xbccefb2e	-0.025266256
134	0xbd9dde7f	-0.077084534
135	0xbcb8fe15	-0.022582093
136	0xbccb3da0	-0.024809659
137	0x3d549d9e	0.051908128
138	0x3db7b566	0.08970146
139	0xbc32a990	-0.010904685
140	0xbd8fdc42	-0.07024433
141	0xbd7e9a28	-0.062158734
142	0x3d927b83	0.07152464
143	0xbd86855a	-0.065684035
144	0x3d8ee6f9	0.06977648
145	0x3b751cb3	0.003740114
146	0x3d984ecf	0.074369065
147	0x3d4fb9c8	0.050714284
148	0x3d39bf79	0.04534862
149	0x3d714eb8	0.058912963
150	0x3da59ab3	0.08086147
151	0x3cfda31f	0.030961571
152	0xbc42ce34	-0.011889983
153	0xbceded3e	-0.02904379
154	0xbd7dbd0f	-0.06194788
155	0x3bcc9b46	0.006244096
156	0xba703126	-0.0009162597
157	0x3bec9d20	0.007220879
158	0xbd07b876	-0.0331349
159	0x3db58aef	0.0886439
160	0xbd2a6f1c	-0.04160987
161	0x3d90e313	0.07074561
162	0x3cac1f55	0.021011034
163	0xbba3b6d8	-0.004996162
164	0x3d7536d3	0.059866738
165	0x3d696d0d	0.056988765
166	0xbcf4eafd	-0.029897207
167	0xbceac7a2	-0.028659645
168	0x3cd2d76e	0.02573749
169	0xbd3f30bb	-0.046677332
170	0xbc4f1909	-0.012640246
171	0x3d04462c	0.032293484
172	0x3cde9598	0.027170941
173	0xbd9c2bf4	-0.07625571
174	0xbd0f396e	-0.03496688
175	0xbd87ce9b	-0.06631204
176	0xbdb85f09	-0.090025015
177	0xbd98febf	-0.07470464
178	0xbc99aad3	-0.018758213
179	0xbcd94491	-0.026521953
180	0xbd4dc800	-0.050239563
181	0x3cbaf3f3	0.022821402
182	0xbdba870f	-0.09107792
183	0x3d80cef1	0.06289471
184	0x3db93dc4	0.09044984
185	0x3cd5e24c	0.026108883
186	0x3beed3f9	0.0072884527
187	0x3d2e7982	0.042596348
188	0xbca09821	-0.01960379
189	0xbd63f4b0	-0.055653274
190	0x3d2e4843	0.042549383
191	0x3d8e3f74	0.069456965
192	0x3bebc2e8	0.0071948655
193	0x3c8d9977	0.017285092
194	0x3b4be6c9	0.00311129
195	0xbcc1a806	-0.02363969
196	0x3cda3161	0.026634874
197	0xbda4b709	-0.08042724
198	0xbc7d2f06	-0.015453106
199	0xbd6cf691	-0.05785233
200	0xbd85a075	-0.065247454
201	0xbd53ccc1	-0.05170894
202	0xbd4646ee	-0.048407488
203	0x3d01087c	0.031502232
204	0x3d097d83	0.033566963
205	0x3db109cc	0.08644447
206	0x3d4d6b18	0.05015096
207	0x3d0a71d7	0.033799972
208	0xbbec5bd6	-0.007213096
209	0xbd5c84fe	-0.05383777
210	0xbd63cc28	-0.05561462
211	0xbdab86f8	-0.083753526
212	0x3d100edc	0.03517042
213	0xbcb6b97f	-0.022305248
214	0x3d996419	0.07489795
215	0x3dbdf2fe	0.09274863
216	0xbd96abb6	-0.0735697
217	0xbd1f260b	-0.03885464
218	0xbda12f4b	-0.078703485
219	0x3d6dd963	0.058068644
220	0x3c8f15e6	0.017466497
221	0x3d6cc5bf	0.057805773
222	0x3ccf0093	0.025268828
223	0xbbb01262	-0.005373285
224	0xbda92a3c	-0.08260009
225	0x3d92b6a5	0.07163743
226	0xbc9ea644	-0.019366391
227	0xbbc1594f	-0.005900539
228	0x3d9a9e01	0.07549668
229	0xbd0c907e	-0.034317486
230	0xbd47b1ae	-0.048753433
231	0x3d1c6b8d	0.038188506
232	0x3d70bc05	0.05877306
233	0x3c175ec9	0.009238907
234	0xbd767cce	-0.060177617
235	0x3d5ba40f	0.053623255
236	0xbd8f2096	-0.06988637
237	0x3da18838	0.0788731
238	0x3d913b2e	0.07091366
239	0x3b2a0277	0.002594141
240	0x3c2e6c94	0.010646004
241	0xbd4a9998	-0.049462885
242	0x3d02367c	0.03179024
243	0xbd33fec9	-0.043944154
244	0x3dbac9d5	0.09120528
245	0x3cf78be6	0.030218076
246	0x3c7f4197	0.015579603
247	0xbd159427	-0.036518242
248	0x3d5b7bdf	0.05358493
249	0xbb8763c1	-0.0041317646
250	0xbd2005fd	-0.03906821
251	0xbcdc309a	-0.026878644
252	0xbd3c4dfb	-0.045972805
253	0xbc84e6eb	-0.016223392
254	0x3d9c8d26	0.076441094
255	0xbd299395	-0.04140051

se3_transformer.conv_in.kernel_unary.(0,0).rp.net.3.bias f4 [128]
0	0x3d83bbe3	0.06432321
1	0xbd59fed3	-0.053221535
2	0xbce96966	-0.02849264
3	0xbbaa0b8a	-0.005189364
4	0x3d933d9b	0.07189485
5	0x3d0b38ca	0.033989705
6	0x3b9603d1	0.0045780917
7	0x3beace19	0.007165682
8	0xbdb26148	-0.08709961
9	0x3d9d7aa8	0.076894104
10	0x3d5e2164	0.054231063
11	0x3da13a7e	0.078724846
12	0x3d7cc85f	0.061714526
13	0x3d42f4b7	0.04759666
14	0xbd41b9c9	-0.04729632
15	0xbda56131	-0.080751784
16	0xbda5a452	-0.08087982
17	0xbd81923e	-0.063267216
18	0xbd8dc034	-0.069214255
19	0xbc185cc2	-0.009299459
20	0x3d3d5e19	0.046232317
21	0xbd6aea68	-0.057352453
22	0x3d38c711	0.04511172
23	0x3d7fda31	0.062463943
24	0xbd79030c	-0.06079392
25	0x3cc5997b	0.024121037
26	0x3cc68a01	0.024235727
27	0x3caed167	0.021340085
28	0x3d9a161b	0.075237475
29	0x3ac12a1b	0.001473728
30	0xbac532af	-0.0015045012
31	0xbdb56ba1	-0.08858419
32	0x3d977d99	0.07397003
33	0xbd68587c	-0.05672501
34	0x3d69e446	0.057102464
35	0xbd55a9a8	-0.05216375
36	0x39d1c2d1	0.00040008736
37	0x3ca5ab58	0.020223305
38	0xbc9a244b	-0.018816134
39	0x3cfe47eb	0.031040153
40	0x3da575fd	0.08079145
41	0x3da2e291	0.0795337
42	0xbd06425f	-0.03277814
43	0x3c2a68fd	0.010401008
44	0x3d98a9d8	0.0745427
45	0x3d4866ee	0.048926286
46	0xbd9a1422	-0.07523371
47	0x3da43742	0.08018352
48	0x3d4337b8	0.04766056
49	0x3c9beb49	0.019033091
50	0x3d70d2c5	0.058794755
51	0xbd614a9c	-0.055002794
52	0x3da966b3	0.082715414
53	0x3db198e3	0.08671739
54	0xbc522c93	-0.01282801
55	0x3b90e650	0.0044219866
56	0xbcc3ee9a	-0.023917485
57	0x3d93316c	0.07187161
58	0x3d0be172	0.03415055
59	0xbd9a0655	-0.07520739
60	0xbb51be1b	-0.003200418
61	0x3dbdd5e8	0.09269315
62	0xbd5073c5	-0.050891656
63	0xbd598055	-0.053100903
64	0xbd2e9f15	-0.04263218
65	0xbd8951af	-0.06705033
66	0x3da79e7f	0.081845276
67	0x39c131e6	0.00036849006
68	0x3d0bccb9	0.034130786
69	0x3cf8675d	0.030322725
70	0xbd27d7eb	-0.0409774
71	0xbd93620f	-0.071964376
72	0xbd5bc44a	-0.053653993
73	0x3d42f3d0	0.0475958
74	0xbcdb1f08	-0.026748195
75	0xbcba0b63	-0.022710508
76	0x3cab2275	0.020890454
77	0xbd7ac561	-0.06122339
78	0xb95efdb9	-0.00021266089
79	0xbd9c38de	-0.07628034
80	0x3c598413	0.013276118
81	0xbbf0d565	-0.0073496574
82	0x3d0b8512	0.034062453
83	0xbc8238ed	-0.015896285
84	0xbccc73d7	-0.02495758
85	0x3a833a0d	0.0010011807
86	0x3cd5389f	0.026027976
87	0xbc8845b7	-0.016634805
88	0x3cd66abf	0.026173947
89	0x3d612db6	0.054975234
90	0x3d2d0696	0.04224261
91	0xbc7b5d19	-0.01534202
92	0x3d06fa69	0.032953653
93	0x3d351cbb	0.044216853
94	0x3ae8a855	0.0017750362
95	0xbd903512	-0.07041372
96	0xbd28ba65	-0.041193385
97	0xbd32eb4b	-0.043681424
98	0xbd1aae2e	-0.037763767
99	0x3cad1724	0.021129198
100	0xbd206355	-0.03915723
101	0xbd359ebc	-0.044340834
102	0x3d12a05e	0.03579747
103	0x3dbbdb67	0.09172707
104	0xbc812c88	-0.015768304
105	0xbb185967	-0.0023246647
106	0xbcb3eb0a	-0.021962661
107	0x3d21c158	0.039491028
108	0xbc1e2456	-0.009652218
109	0xbd0b82a9	-0.034060154
110	0x3da9863b	0.082775556
111	0xbd393918	-0.045220464
112	0x3d9d66a8	0.07685596
113	0x3cac5afd	0.02103948
114	0xbd1722e3	-0.036898505
115	0xbcacf0ec	-0.021110974
116	0xbd51093d	-0.0510342
117	0x3a70ccd1	0.00091857935
118	0xbd671ce2	-0.05642403
119	0xbda48eaa	-0.080350235
120	0xbc57fa5b	-0.013182248
121	0xbd8ae471	-0.06781853
122	0x3ce5c7f6	0.02804945
123	0xbdaa8758	-0.08326596
124	0x3c838376	0.016053896
125	0x3db9df60	0.090758085
126	0x3d73e8c4	0.059548154
127	0x3d963b13	0.07335486

se3_transformer.conv_in.kernel_unary.(0,0).rp.net.4.weight f4 [128]
0	0x3f7eb917	0.99501175
1	0x3f80a0d9	1.0049087
2	0x3f7edfdf	0.9956035
3	0x3f7eba23	0.9950277
4	0x3f80a271	1.0049573
5	0x3f7e919a	0.9944092
6	0x3f80a359	1.004985
7	0x3f809a71	1.0047132
8	0x3f7ebb87	0.99504894
9	0x3f7ebd93	0.9950802
10	0x3f7eb7cd	0.9949921
11	0x3f80a28d	1.0049607
12	0x3f7ebc41	0.99506
13	0x3f7eb97e	0.9950179
14	0x3f80a48d	1.0050217
15	0x3f7eba88	0.99503374
16	0x3f80dd04	1.0067449
17	0x3f7ec323	0.99516505
18	0x3f7eb99c	0.9950197
19	0x3f80a3e4	1.0050015
20	0x3f81637e	1.0108488
21	0x3f7eb982	0.9950181
22	0x3f7eb9d3	0.99502295
23	0x3f7eb986	0.99501836
24	0x3f7eb9c2	0.99502194
25	0x3f80a3b4	1.0049958
26	0x3f7eb997	0.9950194
27	0x3f7eb8a9	0.9950052
28	0x3f7eb9ab	0.99502057
29	0x3f7eb903	0.99501055
30	0x3f80a321	1.0049783
31	0x3f80a318	1.0049772
32	0x3f80a1ba	1.0049355
33	0x3f7eba18	0.99502707
34	0x3f80aaef	1.0052165
35	0x3f7eb906	0.99501073
36	0x3f7eafeb	0.9948718
37	0x3f7ebba1	0.9950505
38	0x3f7eb42d	0.99493676
39	0x3f7eb9c3	0.995022
40	0x3f80a3df	1.005001
41	0x3f80a233	1.0049499
42	0x3f7ebc6d	0.99506265
43	0x3f809e94	1.0048394
44	0x3f7eb947	0.9950146
45	0x3f7f56d6	0.99741876
46	0x3f7ebab5	0.9950364
47	0x3f80a286	1.0049598
48	0x3f80a330	1.0049801
49	0x3f7eb8c9	0.9950071
50	0x3f80a364	1.0049863
51	0x3f7fe345	0.9995616
52	0x3f80a424	1.0050092
53	0x3f81120c	1.0083632
54	0x3f80a799	1.0051147
55	0x3f80a305	1.004975
56	0x3f80b1d7	1.0054272
57	0x3f7eb9fd	0.99502546
58	0x3f80a469	1.0050174
59	0x3f7eb875	0.9950021
60	0x3f80a382	1.0049899
61	0x3f7ebce1	0.99506956
62	0x3f7ebd40	0.9950752
63	0x3f80a443	1.0050129
64	0x3f80a1a6	1.0049331
65	0x3f80a3b5	1.004996
66	0x3f80a339	1.0049812
67	0x3f7eb97c	0.99501777
68	0x3f7eb9a9	0.99502045
69	0x3f80a218	1.0049467
70	0x3f80a292	1.0049613
71	0x3f80a14c	1.0049224
72	0x3f7ebb0e	0.9950417
73	0x3f80bd3c	1.005775
74	0x3f7eb7c1	0.99499136
75	0x3f7eb8bb	0.99500626
76	0x3f80cdb2	1.0062773
77	0x3f80a343	1.0049824
78	0x3f80a0d8	1.0049086
79	0x3f7eb9b4	0.9950211
80	0x3f7ebd19	0.9950729
81	0x3f80a331	1.0049802
82	0x3f7f6e00	0.9977722
83	0x3f80a396	1.0049922
84	0x3f80a46f	1.0050181
85	0x3f80a35d	1.0049855
86	0x3f80a4ac	1.0050254
87	0x3f80a50f	1.0050372
88	0x3f80a32a	1.0049794
89	0x3f80a3e2	1.0050013
90	0x3f7eb96c	0.9950168
91	0x3f7ebfb1	0.9951125
92	0x3f80a389	1.0049907
93	0x3f7eb946	0.99501455
94	0x3f80a32a	1.0049794
95	0x3f80a32b	1.0049795
96	0x3f80a380	1.0049896
97	0x3f809ebc	1.0048442
98	0x3f80ab0b	1.0052198
99	0x3f80a43c	1.005012
100	0x3f80a89b	1.0051454
101	0x3f80a373	1.0049881
102	0x3f80a2f2	1.0049727
103	0x3f7eaea8	0.99485254
104	0x3f80a1ef	1.0049418
105	0x3f80a5ba	1.0050576
106	0x3f7eb8d5	0.9950078
107	0x3f7eb920	0.9950123
108	0x3f7ebd3d	0.99507505
109	0x3f80a3bf	1.0049971
110	0x3f80a4ab	1.0050253
111	0x3f7eb8e3	0.99500865
112	0x3f7eb993	0.99501914
113	0x3f80a41c	1.0050082
114	0x3f80a286	1.0049598
115	0x3f80a3f4	1.0050035
116	0x3f7ebf19	0.9951034
117	0x3f80a1d5	1.0049387
118	0x3f7eb91c	0.99501204
119	0x3f80a0d1	1.0049077
120	0x3f7eb93d	0.995014
121	0x3f7ecd11	0.99531657
122	0x3f7eba92	0.99503434
123	0x3f80a2ac	1.0049644
124	0x3f7eb8a3	0.99500483
125	0x3f80a3c8	1.0049982
126	0x3f7ea086	0.9946369
127	0x3f7eb86c	0.99500155

se3_transformer.conv_in.kernel_unary.(0,0).rp.net.4.bias f4 [128]
0	0xbba356dc	-0.0049847197
1	0xbba28f87	-0.0049609574
2	0x3ba54738	0.0050438903
3	0xbba31d71	-0.004977875
4	0xbba2841c	-0.0049595963
5	0x3ba2d39d	0.004969074
6	0x3ba341a2	0.0049821893
7	0xbb8b13a2	-0.004244284
8	0xbbac068f	-0.0052498053
9	0x3ba36e5d	0.0049875216
10	0xbba6a0c9	-0.005085085
11	0x3ba2ec28	0.0049719997
12	0xbba60c8f	-0.005067415
13	0xbba379d7	-0.0049888897
14	0xbba35478	-0.0049844347
15	0xbba035b2	-0.0048892135
16	0x3bcb7bf8	0.0062098466
17	0xbba38fd8	-0.0049915127
18	0x3ba25cf0	0.0049549267
19	0xbba3df58	-0.00500099
20	0x3ba7becb	0.00511918
21	0x3ba55dcf	0.0050465832
22	0xbba2c6c2	-0.0049675414
23	0xbba36050	-0.0049858466
24	0xbba37163	-0.004987882
25	0x3ba392fb	0.0049918867
26	0xbba3964c	-0.004992282
27	0x3ba3d6c0	0.0049999654
28	0xbba39a0f	-0.0049927304
29	0xbba3e46b	-0.005001595
30	0xbba323da	-0.004978639
31	0xbba32cce	-0.0049797064
32	0x3ba0eb98	0.0049108975
33	0x3ba3066b	0.0049751303
34	0x3ba47c82	0.0050197253
35	0xbba43a2d	-0.005011818
36	0xbbaf8f3b	-0.0053576506
37	0xbba38bc9	-0.004991029
38	0x3ba29786	0.0049619107
39	0xbba30511	-0.004974969
40	0x3ba39192	0.0049917186
41	0x3ba29336	0.0049613966
42	0xbba283e7	-0.0049595716
43	0xbba01f06	-0.004886511
44	0xbba37e95	-0.004989455
45	0xbba3f33e	-0.005003362
46	0xbba2866a	-0.004959871
47	0xbba2b272	-0.00496512
48	0x3ba31a81	0.0049775247
49	0xbba3cde2	-0.0049989084
50	0xbba34f76	-0.0049838377
51	0x3b98aa46	0.00465897
52	0x3ba30dcd	0.0049760104
53	0x3bea9691	0.007159062
54	0xbba62c6d	-0.005071214
55	0x3ba2fedd	0.0049742297
56	0xbba8dbb7	-0.005153145
57	0x3ba2b6b8	0.0049656294
58	0xbba42888	-0.0050097145
59	0xbba30ec4	-0.0049761254
60	0xbba392fe	-0.004991888
61	0x3ba0b44c	0.0049043056
62	0x3ba65ee6	0.0050772307
63	0x3ba3a7f1	0.0049943854
64	0xbb9990a9	-0.0046864343
65	0xbba38e65	-0.00499134
66	0xbba2c26f	-0.004967026
67	0xbba36936	-0.0049869074
68	0x3ba37a4a	0.004988943
69	0x3ba21ab0	0.004947029
70	0xbba2e385	-0.00497097
71	0x3ba1933f	0.004930883
72	0xbba14f45	-0.0049227797
73	0xbbd6d12f	-0.0065556983
74	0x3ba483b0	0.005020581
75	0x3ba1de62	0.00493984
76	0x3ba42a32	0.005009913
77	0x3ba34568	0.004982639
78	0xbb9f5e6e	-0.004863552
79	0xbba32451	-0.0049786945
80	0x3ba40a37	0.0050061005
81	0x3ba33177	0.004980262
82	0xbbe716ad	-0.0070522637
83	0xbba38d8a	-0.004991238
84	0x3ba437a4	0.0050115157
85	0xbba3451b	-0.0049826032
86	0x3ba46b22	0.005017654
87	0x3ba4cf35	0.005029584
88	0xbba32717	-0.004979025
89	0x3ba3c926	0.004998344
90	0xbba34ac8	-0.00498328
91	0x3ba5c548	0.005058918
92	0x3ba0c7ec	0.004906645
93	0xbba343f6	-0.004982467
94	0xbba34300	-0.0049823523
95	0xbba338a3	-0.004981117
96	0x3ba3a816	0.0049944026
97	0x3ba2a7b8	0.0049638413
98	0x3ba2eb1c	0.004971875
99	0x3ba421a7	0.0050088945
100	0x3ba3f3ce	0.005003429
101	0xbba33b55	-0.004981438
102	0xbba32f39	-0.0049799946
103	0x3b988e8c	0.004655665
104	0xbba24f1a	-0.0049532773
105	0x3ba53f62	0.005042956
106	0x3ba37bc8	0.004989121
107	0xbba39211	-0.0049917777
108	0x3ba487a9	0.0050210548
109	0x3ba38a1a	0.004990828
110	0x3ba3f2c1	0.0050033038
111	0xbba3e2d9	-0.0050014076
112	0xbba36fd2	-0.0049876953
113	0x3ba3dea6	0.005000907
114	0x3ba2fce1	0.004973993
115	0xbba3da3d	-0.0050003813
116	0x3ba95b4c	0.005168354
117	0xbba2735b	-0.004957599
118	0xbba37304	-0.004988076
119	0xbba23b37	-0.0049509066
120	0x3ba2ccd9	0.0049682674
121	0xbba2a334	-0.004963303
122	0x3b9a2b4a	0.0047048675
123	0x3ba2ef9b	0.004972411
124	0x3ba42bcc	0.005010104
125	0xbba40ea2	-0.005006627
126	0x3ba2d8d0	0.0049696937
127	0xbba40d4e	-0.005006469

se3_transformer.conv_in.kernel_unary.(0,0).rp.net.6.weight f4 [64, 128]
0	0xbd3d66ba	-0.046240546
1	0xbd8df1b3	-0.06930866
2	0xbccdbd0f	-0.025114564
3	0x3c8eb742	0.017421369
4	0xbd76d9e3	-0.060266387
5	0xbd876731	-0.06611479
6	0x3c468854	0.012117464
7	0x3ca9e22d	0.020737732
8	0x3da34e1c	0.079738826
9	0x3c75bf69	0.014999249
10	0xbc44445a	-0.011979187
11	0xbd320a01	-0.04346657
12	0x3d3a35c4	0.04546143
13	0x3be8cf23	0.0071047707
14	0xbd999d22	-0.07500674
15	0x3b222262	0.0024739732
16	0x3c84298b	0.01613309
17	0xbd9ebef1	-0.07751263
18	0x3c8490d5	0.016182343
19	0xbd3f3c34	-0.046688274
20	0xbd6b1f6b	-0.05740301
21	0xbd69df97	-0.057097998
22	0xbd915521	-0.07096315
23	0xbd5574cf	-0.05211335
24	0x3bd79733	0.0065793036
25	0x3d87083e	0.06593369
26	0xbc67312f	-0.014110847
27	0xbc336838	-0.010950141
28	0x3d883c6c	0.066521496
29	0xbcc6f857	-0.02428834
30	0x3d4779b2	0.048700042
31	0x3d99c09b	0.0750744
32	0xbd2f4c2b	-0.04279725
33	0x3cef07fa	0.029178608
34	0x3da0ffde	0.07861303
35	0x3ce991e9	0.028511958
36	0x3d15b7c5	0.03655221
37	0xbc7d8410	-0.015473381
38	0x3bdfdedd	0.0068319873
39	0x3d518dfe	0.051160805
40	0x3d013afb	0.03155039
41	0x3d9b6847	0.07588249
42	0x3c024254	0.007950384
43	0x3c2ad665	0.010427092
44	0xbcae3439	-0.021265136
45	0x3bc3eb82	0.0059790025
46	0xbd42a0b6	-0.047516547
47	0x3d849668	0.06474
48	0x3d678df2	0.056531854
49	0xbc3356f3	-0.010946023
50	0x3cdf1f90	0.02723673
51	0x398dac0a	0.00027021795
52	0xbbd15abb	-0.0063889897
53	0x3da2b67e	0.07944964
54	0x3c6deeb2	0.014522241
55	0xbd9abff9	-0.07556147
56	0xbd55803c	-0.052124247
57	0xbd0c6973	-0.03428025
58	0x3ca416ec	0.020030461
59	0x3d2944c8	0.04132536
60	0xbd387abd	-0.045038927
61	0xbd93ae6e	-0.07211004
62	0xbc66cf93	-0.0140875755
63	0x3d1c0ed2	0.03810007
64	0x3c7a45b8	0.015275411
65	0xbd5afbbf	-0.05346274
66	0xbd8fbb8b	-0.07018193
67	0xbd8808f9	-0.066423364
68	0xbd187626	-0.03722205
69	0x3c41b422	0.011822732
70	0xbd7d32ff	-0.06181621
71	0x3d7de5fe	0.061986916
72	0x3b13211f	0.0022450162
73	0xbbea9ff6	-0.007160182
74	0xbce714e7	-0.02820821
75	0xbdbdd18c	-0.092684835
76	0xbd5a5fb8	-0.05331394
77	0x3c3d4894	0.0115529485
78	0xbd563c8f	-0.052303847
79	0xbc9240c3	-0.017853146
80	0x3d7d54ed	0.06184857
81	0x3d215834	0.039390758
82	0x3da4374a	0.08018358
83	0xbd546eff	-0.051863667
84	0xbd31c806	-0.043403648
85	0xbb98132b	-0.004640957
86	0xbd0684df	-0.03284156
87	0x3d6c07f3	0.05762477
88	0x3cc5a490	0.024126321
89	0xbd9fe56a	-0.07807429
90	0xbd1d356f	-0.038381036
91	0x3d1d1081	0.038345817
92	0x3d56813b	0.052369338
93	0xbd8eb995	-0.06968991
94	0xbd97c459	-0.07410497
95	0x3c86efef	0.016471831
96	0x3da3dfcd	0.08001671
97	0xbc80ddb7	-0.015730722
98	0x3db71a34	0.08940545
99	0xbd4381b1	-0.047731105
100	0x3ccd81bd	0.025086278
101	0x3cc5ef48	0.02416195
102	0xbca2dcf7	-0.019880755
103	0x3d2cad79	0.042157624
104	0xbc36ca64	-0.011156652
105	0x3db45563	0.08805349
106	0x3cd84a30	0.026402563
107	0xbd38cc13	-0.045116495
108	0xbc1097bb	-0.008825238
109	0x3d818901	0.063249595
110	0x3d21479b	0.03937493
111	0x3cc7049d	0.024294192
112	0x3d0ba8fe	0.03409671
113	0xbd1b46ea	-0.037909426
114	0x38da372b	0.00010405326
115	0xbcb46e6e	-0.022025313
116	0x3cda3395	0.026635924
117	0xbca0cfff	-0.01963043
118	0xbd5e507c	-0.054275975
119	0xbb8c5f3e	-0.0042838147
120	0xbd99518f	-0.07486259
121	0xbcdf5704	-0.027263172
122	0xbd55e9d8	-0.052224964
123	0x3d88dfd4	0.06683317
124	0xbce42b6f	-0.027852742
125	0x3d4b4e5f	0.049635287
126	0x3d054a46	0.032541536
127	0xbd3cc872	-0.046089597
128	0x3d849bdf	0.064750426
129	0x3d03ad8e	0.032147937
130	0x3d0b9c3e	0.03408455
131	0xbd268c87	-0.04066136
132	0xbd9c76e1	-0.07639862
133	0xbcd53267	-0.02602501
134	0xbcd82134	-0.02638302
135	0x3cc0e2a5	0.023545573
136	0x3d7ea8d7	0.062172737
137	0x3c537ecc	0.012908649
138	0xbc72a34e	-0.014809443
139	0xbcf7e5a7	-0.030260874
140	0xbdb5e444	-0.08881429
141	0x3d30cc96	0.04316386
142	0xbc32ad2f	-0.010905548
143	0xbdb04eac	-0.086087555
144	0x3a87db33	0.0010365009
145	0xbd8e7b03	-0.069570564
146	0x3d1066c6	0.035254262
147	0xbba9208e	-0.0051613515
148	0xbd05d63c	-0.032675013
149	0x3da2f26a	0.07956393
150	0x3d38588c	0.04500632
151	0x3d47571e	0.048667066
152	0xbbd6755a	-0.006544751
153	0xbc889298	-0.016671464
154	0x3d313289	0.043261085
155	0x39f26345	0.00046231798
156	0x3d4b379f	0.04961359
157	0xbdba828d	-0.09106932
158	0xbda54393	-0.080695294
159	0xbc6aee67	-0.014339066
160	0xbd0f99a1	-0.03505862
161	0x3d2dcc04	0.042430893
162	0xbc5a06b1	-0.013307259
163	0xbc5a1094	-0.013309617
164	0x3d309bf7	0.04311749
165	0x39edf955	0.0004538993
166	0x3c9ca32b	0.019120773
167	0x3caf4e14	0.021399535
168	0xbd38846e	-0.04504817
169	0x3cc4fd65	0.02404661
170	0x388dad71	6.75571e-05
171	0x3d7afc85	0.061275978
172	0xbdb3d9b7	-0.0878176
173	0x3d060c0d	0.032726336
174	0xbd4b8bf9	-0.049694035
175	0xbd3aea9d	-0.0456339
176	0xbd56a177	-0.05240008
177	0x3c4042e4	0.011734698
178	0x3d164fb7	0.036697116
179	0xbda09724	-0.07841328
180	0xbd49a7fb	-0.049232464
181	0x3d84110b	0.06448563
182	0x3d32a013	0.04360969
183	0xbd6c1a66	-0.057642363
184	0x3da1970b	0.07890137
185	0x3dab63b4	0.08368626
186	0x3d3ed281	0.04658747
187	0xbcc29391	-0.023752006
188	0x3cbc42c9	0.022981064
189	0x3d1002c4	0.035158888
190	0xbd8ca776	-0.06867878
191	0xbdb43bc5	-0.08800463
192	0x3ca637c8	0.02029027
193	0xbd9f7854	-0.07786623
194	0xbd79187a	-0.06081436
195	0xbd91dcfc	-0.071222275
196	0xbd3fa010	-0.046783507
197	0x3d29cd3b	0.04145549
198	0x3daec41a	0.08533497
199	0x3d8aa455	0.06769625
200	0xbd9e0332	-0.07715453
201	0x3d8c3f00	0.06847954
202	0xba79fcc6	-0.00095362624
203	0x39254dcd	0.00015764609
204	0xbc5d3b07	-0.013502843
205	0xbdb314dc	-0.08744213
206	0x3ca92bb3	0.02065072
207	0x3d874443	0.06604817
208	0x3db9b8e3	0.090684675
209	0x3d8c4fc7	0.06851154
210	0x3cafa963	0.021443075
211	0xbb9f28b5	-0.0048571476
212	0xbd1150bf	-0.035477396
213	0xbda50ba7	-0.08058863
214	0xbc0548f7	-0.008135072
215	0x3d846a3c	0.06465575
216	0xbcfe6a4e	-0.03105655
217	0xbdb099d9	-0.08623094
218	0x3d8251e6	0.06363277
219	0xbc6bb2e2	-0.014385911
220	0x3d4d15f2	0.050069757
221	0x3cb38d8b	0.021918079
222	0xbc82d643	-0.015971309
223	0x3d43f244	0.047838464
224	0x3c4aab7a	0.012369985
225	0xbd6bc3bd	-0.057559717
226	0x3c8feec5	0.017569909
227	0x3d609d6e	0.054837637
228	0xbd01012e	-0.031495266
229	0x3d9d642d	0.07685123
230	0x3d9bde5c	0.07610771
231	0x3d19422d	0.037416626
232	0x3db81e3c	0.08990142
233	0xbd29cf76	-0.041457616
234	0xbda44ac8	-0.08022076
235	0x3c5a73c9	0.013333269
236	0xbd9939ab	-0.074817024
237	0x3d911b55	0.07085291
238	0xbd660e16	-0.056165777
239	0x3c5ac0f4	0.013351668
240	0x3d3be8da	0.04587636
241	0x3d71756d	0.058949877
242	0xbd825586	-0.063639686
243	0x3c931867	0.017955972
244	0xbd8e1b1d	-0.06938765
245	0x3c021d5b	0.007941569
246	0xbdbf17a6	-0.093306825
247	0xbd7580eb	-0.0599374
248	0x3d28402b	0.04107682
249	0x3d26e396	0.040744387
250	0xbd701b96	-0.058620058
251	0x3d8001ca	0.06250341
252	0x3cf96318	0.03044276
253	0x3aaee981	0.0013344736
254	0x3d88e56a	0.06684382
255	0x3cecb489	0.02889468

se3_transformer.conv_in.kernel_unary.(0,0).rp.net.6.bias f4 [64]
0	0x3c687fca	0.014190624
1	0x3d40966e	0.04701846
2	0xbb90707f	-0.004407942
3	0x3cabde1f	0.020979939
4	0x3cab291a	0.020893622
5	0xbd8f0f8e	-0.06985389
6	0x3d8611bd	0.06546352
7	0x3dbc4720	0.091932535
8	0xbd5f3747	-0.054496076
9	0xbd4ab8b3	-0.04949255
10	0x3d621fca	0.055206098
11	0x3d7e00bc	0.06201242
12	0xbc8e2fe4	-0.01735682
13	0xbd8bba99	-0.068227
14	0x3c1e84e5	0.009675239
15	0xbd6bb25d	-0.057543147
16	0x3d7e7313	0.062121462
17	0xbd05604e	-0.032562546
18	0xbcc867ad	-0.024463499
19	0xbd4bb49e	-0.049732797
20	0xbd4f3ea1	-0.050596837
21	0x3d84f996	0.06492917
22	0xbd3f43f3	-0.04669566
23	0xbcdfa024	-0.02729804
24	0x3b6734bf	0.0035279242
25	0x3d5e5c64	0.05428733
26	0xbdbc4011	-0.09191907
27	0xbd2da5e1	-0.042394523
28	0xbd185041	-0.03718591
29	0xbc1a3b1f	-0.00941351
30	0x3c92eb94	0.017934598
31	0x3dadd9f7	0.08488839
32	0xbd99d941	-0.07512141
33	0x3d58e087	0.0529485
34	0xbd88ad34	-0.06673661
35	0xbd5800de	-0.052735202
36	0x3d894c83	0.067040466
37	0xbdabc6d1	-0.083875306
38	0x3d8b0686	0.067883536
39	0xbc82c82a	-0.015964586
40	0x3d56a16d	0.05240004
41	0x3da65e46	0.0812345
42	0xbd85cc57	-0.06533115
43	0xbc99da91	-0.018780978
44	0x3d6a22a5	0.057161946
45	0xbd016549	-0.031590734
46	0xbcd0fe66	-0.025511932
47	0x3c788e06	0.01517058
48	0x3d3b1a9f	0.045679685
49	0xbc2fbebe	-0.010726629
50	0xbdb08406	-0.086189315
51	0xbcafc2e2	-0.021455232
52	0x3d9c725a	0.07638998
53	0x3da46cd9	0.080285735
54	0x3cb56050	0.022140652
55	0xbc51996e	-0.012792928
56	0xbcd3b760	-0.025844276
57	0xbda865a9	-0.08222515
58	0xbd4371c5	-0.04771592
59	0xbc7d2623	-0.015450987
60	0x3d0fb2ab	0.0350825
61	0x3d4dd539	0.050252173
62	0x3d1569e0	0.036477923
63	0xbd88e14e	-0.066835985

se3_transformer.conv_in.self_interact.weights.0 f4 [8, 8]
0	0x3d88d864	0.06681898
1	0x3eef9e3b	0.46800408
2	0x3e6bd768	0.2303139
3	0x3b95cd47	0.00457159
4	0x3ec35840	0.38153267
5	0xbe0e08b8	-0.13870513
6	0xbe26d06a	-0.16290441
7	0xbf819081	-1.0122224
8	0x3e1a8011	0.15087916
9	0xbf1f5046	-0.6223186
10	0xbdf5d3c0	-0.12003279
11	0xbc9c354d	-0.019068385
12	0xbee9eed2	-0.45690018
13	0xbe010728	-0.12600386
14	0xbd34c0a1	-0.044129018
15	0xbf272e6c	-0.6530521
16	0xbe20fde3	-0.1572185
17	0x3e851331	0.25991204
18	0xbefed7a7	-0.49773905
19	0xbe2c92db	-0.16852896
20	0xbf53c8e9	-0.8272844
21	0xbe9121f3	-0.28346214
22	0x3e8a719a	0.27039796
23	0x3e420802	0.18948367
24	0x3ecd826e	0.40138572
25	0xbdc916d3	-0.098188065
26	0xbce88474	-0.028383471
27	0x3f04a908	0.5182042
28	0xbdff22ff	-0.12457847
29	0xbe8ed060	-0.27893353
30	0x3f53d803	0.8275148
31	0xbed99cf3	-0.42502555
32	0x3cb22aa8	0.021748856
33	0x3f1e5c04	0.61859155
34	0xbd83fa20	-0.06444192
35	0xbe9f8ff4	-0.31164515
36	0xbee0e57c	-0.43925083
37	0x3f0d8fe6	0.55297697
38	0xbe645faf	-0.22302125
39	0x3e28ee6b	0.16497199
40	0x3f183dda	0.5946938
41	0xbf302704	-0.68809533
42	0xbd8809a2	-0.06642462
43	0xbe1f94bb	-0.1558408
44	0x3dcf96f5	0.10136215
45	0x3f024461	0.5088559
46	0x3ee5f31f	0.4491205
47	0xbf23e4f4	-0.6402123
48	0x3cfd3c3b	0.03091251
49	0x3de4f255	0.11179034
50	0xbc00d7d9	-0.007863962
51	0xbe95497b	-0.29157624
52	0x3f0f4949	0.559712
53	0xbeda32c7	-0.42616865
54	0x3d33a882	0.043861873
55	0xbeddca05	-0.4331819
56	0x3ecd4d37	0.40097973
57	0xbf0c2faf	-0.5476026
58	0xbd46e535	-0.048558433
59	0x3eec496a	0.4614976
60	0x3e5266c6	0.20547017
61	0xbe83c465	-0.25735775
62	0x3e938483	0.28812036
63	0x3dd6b15a	0.10483046

se3_transformer.net.blocks.0.0.attn.to_q.weights.0 f4 [8, 24]
0	0x3ec4ab84	0.38412106
1	0x3db30a4b	0.087421976
2	0xbdc72040	-0.09722948
3	0x3e41fabd	0.18943305
4	0xbd385190	-0.04499966
5	0x3e2b58b3	0.16733055
6	0xbe96e8c5	-0.29474464
7	0x3da31290	0.07962525
8	0xbf06d8a2	-0.52674305
9	0x3e8d17e7	0.275573
10	0xbed3dc61	-0.41379073
11	0x3ee9448d	0.45560113
12	0x3e2d1ae0	0.16904783
13	0x3e5c9fe7	0.21545373
14	0x3f033d0b	0.5126502
15	0xbc3436a3	-0.0109993545
16	0x3f449af0	0.76798916
17	0x3edcbc57	0.43112442
18	0x3e8a4d3d	0.27012053
19	0xbe29dadb	-0.16587393
20	0xbe370847	-0.17874251
21	0x3f2944c8	0.66120577
22	0xbd04eafb	-0.032450657
23	0xbf5f137b	-0.871391
24	0xbea1315f	-0.3148298
25	0x3ed9f74a	0.4257148
26	0xbee5edaa	-0.44907886
27	0xbdcd3bf9	-0.100212045
28	0xbeea94fc	-0.4581679
29	0xbdd85db8	-0.105647504
30	0x3efa7756	0.4891917
31	0xbe2d600a	-0.16931167
32	0x3cf38f67	0.029731466
33	0x3bb52171	0.005527668
34	0x3e1ddc9d	0.15416189
35	0xbdb7f092	-0.08981432
36	0xbe028813	-0.1274722
37	0x3eed3f41	0.4633732
38	0x3f0c1fca	0.54736006
39	0x3f37a2db	0.7173287
40	0xbe6ce5ae	-0.23134491
41	0xbe07beb2	-0.13256338
42	0xbec2a359	-0.3801525
43	0xbeaa7246	-0.3329031
44	0xbf2a5eb4	-0.66550756
45	0xbf2293e7	-0.6350693
46	0x3adc70ac	0.0016818247
47	0xbeddfb6b	-0.4335588
48	0x3e46b528	0.19405043
49	0x3e66838a	0.22511116
50	0x3d9baad1	0.0760094
51	0x3dacbc66	0.08434372
52	0xbf02acd2	-0.5104495
53	0x3f04d629	0.5188928
54	0xbf08a211	-0.53372294
55	0x3d2dac16	0.042400442
56	0x3ec433e7	0.38320848
57	0xbe8a6b71	-0.27035096
58	0x3dfdaeea	0.12386878
59	0xbe8cae20	-0.27476597
60	0x3eefd67f	0.46843335
61	0x3f029f82	0.5102464
62	0x3e5c8ae7	0.21537362
63	0x3dfa3c40	0.12218523
64	0xbeb1d54a	-0.3473304
65	0xbd393ffd	-0.04522704
66	0x3f0a9188	0.54128313
67	0xbed63a50	-0.41841364
68	0x3ec4e412	0.38455254
69	0xbd654cc2	-0.055981405
70	0x3d06f31f	0.032946702
71	0xbef76956	-0.48322552
72	0xbd93435e	-0.07190584
73	0x3ee75e62	0.45189196
74	0x3d9fa3b3	0.07794895
75	0xbea26ae0	-0.31722164
76	0xbf53166d	-0.82456094
77	0xbeb1d857	-0.34735367
78	0x3e05b06c	0.13055581
79	0x3e636a29	0.22208466
80	0xbee76ec2	-0.4520169
81	0xbea99fb0	-0.33129644
82	0x3ebaa222	0.36451823
83	0xbea22cf0	-0.3167491
84	0xbee5a408	-0.44851708
85	0xbef2cb8b	-0.47420916
86	0xbe354608	-0.17702496
87	0xbe8abec9	-0.27098683
88	0xbe0cfb45	-0.13767727
89	0xbe5ad944	-0.21371943
90	0x3f07cedc	0.5305002
91	0xbcb1ae2c	-0.021689497
92	0xbb96b4d3	-0.0045991926
93	0x3e6d559b	0.23177187
94	0x3eacdbae	0.33761352
95	0x3ed23a06	0.41059893
96	0x3de3a75f	0.11115908
97	0x3e3255ca	0.17415538
98	0xbec65c95	-0.3874251
99	0xbe494767	-0.19656144
100	0x3e0fa18a	0.14026466
101	0x3e452eaf	0.1925609
102	0x3e529909	0.20566191
103	0x3ecb24fd	0.39676657
104	0xbe66050c	-0.22462863
105	0xbe198f09	-0.1499597
106	0x3e75d1ff	0.24005888
107	0xbe5e8390	-0.21729875
108	0xbf115d26	-0.5678276
109	0x3f036146	0.513203
110	0x3c66a2c3	0.014076891
111	0xbe9dbf70	-0.30810118
112	0x3ed5fd7d	0.4179496
113	0xbe0706a8	-0.13186133
114	0xbe25cb9b	-0.1619095
115	0x3e3f6966	0.1869255
116	0x3d81c41e	0.063362345
117	0x3ebae3ff	0.36502072
118	0xbdd90445	-0.105965175
119	0xbee664c2	-0.44998747
120	0x3e8650b4	0.26233447
121	0x3db99159	0.09060926
122	0x3d402f99	0.046920393
123	0x3f41d3d8	0.7571387
124	0x3e2c8542	0.16847709
125	0xbcfbc734	-0.030734636
126	0xbe877d9c	-0.2646302
127	0xbdf83604	-0.12119678
128	0xbd04e514	-0.03244503
129	0xbf3773ad	-0.7166088
130	0x3dbf790d	0.093492605
131	0x3d9b73fb	0.07590481
132	0x3eb7e6cc	0.35918272
133	0xbebd5aac	-0.3698324
134	0xbf41955d	-0.75618535
135	0x3ee5cfa8	0.44884992
136	0x3e9fdbb7	0.31222317
137	0xbe862805	-0.26202407
138	0xbf6cf317	-0.92558426
139	0x3da2b5fb	0.07944866
140	0x3e9cba04	0.3061067
141	0x3ed5fe95	0.41795793
142	0xbd1e42c8	-0.038637906
143	0x3f1d349f	0.6140842
144	0x3e381311	0.17976023
145	0x3ecd3dc4	0.40086186
146	0xbe3ba90b	-0.18326204
147	0x3e773a65	0.2414337
148	0x3d26bb6e	0.04070609
149	0x3e91702e	0.284059
150	0xbf1c6cdb	-0.611036
151	0x3f3c853d	0.73640805
152	0xbd445fe5	-0.047943015
153	0x3ead6411	0.33865407
154	0x3e4c568f	0.19954894
155	0x3da19c28	0.078911126
156	0x3e3015ca	0.17195812
157	0xbe9cdee7	-0.3063881
158	0xbc95cbf3	-0.018285727
159	0x3d9c5465	0.076332845
160	0x3e84d12d	0.25940838
161	0x3eb17683	0.3466073
162	0x3e165cb2	0.14683798
163	0x3e59d66b	0.212732
164	0x3ebccb92	0.36874062
165	0x3d01df76	0.03170725
166	0x3d7c18d4	0.061547115
167	0xbec65f4f	-0.3874459
168	0x3d56e3cf	0.05246335
169	0xbea8bbb8	-0.32955718
170	0x3e7dbbd2	0.24778679
171	0xbe9a8593	-0.30180034
172	0x3d7e4360	0.062075973
173	0x3ea1ecd7	0.31626007
174	0xbee20615	-0.44145265
175	0xbe22cc24	-0.15898186
176	0xbe90ec2c	-0.28305185
177	0x3c9226de	0.017840799
178	0x3ed7dc7a	0.42160398
179	0x3ed44fd2	0.41467148
180	0x3ecf97f8	0.4054563
181	0xba9e3ed5	-0.0012073169
182	0x3f24a32c	0.6431148
183	0xbdba2e38	-0.09090847
184	0x3d9b896f	0.07594573
185	0x3e347b50	0.17625165
186	0x3e852cad	0.26010647
187	0x3dbf1e2a	0.09331925
188	0xbd0da988	-0.034585506
189	0x3e467f18	0.1938442
190	0x3e1394bd	0.14412208
191	0xbea8daf6	-0.32979554

se3_transformer.net.blocks.0.0.attn.to_v.kernel_unary.(0,0).rp.net.0.weight f4 [128, 1]
0	0x3f64e4aa	0.89411414
1	0xbd383e9a	-0.044981577
2	0xbf0540c2	-0.5205194
3	0x3f19a410	0.60015965
4	0x3d7928c2	0.060829885
5	0x3e4abf39	0.19799508
6	0xbc9841b9	-0.018586027
7	0x3f60318c	0.875756
8	0xbf6a3218	-0.91482687
9	0x3f085444	0.5325358
10	0x3f2243ce	0.6338471
11	0x3e5c8af8	0.21537387
12	0x3f75e178	0.96047163
13	0x3ee7e22e	0.4528975
14	0x3e9c7776	0.3055989
15	0xbe88954a	-0.266764
16	0xbe993ace	-0.29927677
17	0x3ea4ded2	0.32201248
18	0x3f6ffb3a	0.93742716
19	0xbf5b2d90	-0.856164
20	0x3e642ab7	0.2228192
21	0x3f104712	0.56358445
22	0x3f6eccc6	0.9328121
23	0xbc607df3	-0.013701904
24	0xbe7e8dd9	-0.24858798
25	0xbe8fc8b2	-0.28082806
26	0x3efd12fe	0.49428552
27	0xbf7df0d0	-0.99195576
28	0xbf52f94c	-0.82411647
29	0x3e44b107	0.19208156
30	0xbf2c306e	-0.672614
31	0x3f328678	0.69736433
32	0xbebc4db6	-0.3677804
33	0x3e6527e8	0.22378504
34	0x3efc06da	0.49223977
35	0xbf74d23e	-0.95633304
36	0xbf12d09a	-0.5734955
37	0x3d719705	0.058981914
38	0x3da665e0	0.081249
39	0xbf10a174	-0.5649636
40	0xbefef62e	-0.49797195
41	0x3f50fc2a	0.8163477
42	0x3e942fca	0.2894271
43	0xbced2008	-0.028945938
44	0xbe09e6c9	-0.13466944
45	0xbf134ff6	-0.57543886
46	0x3f21f112	0.6325847
47	0x3f0278be	0.5096549
48	0x3f233f7a	0.6376873
49	0xbf52a42a	-0.82281744
50	0x3f016f62	0.5056058
51	0xbeee805e	-0.4658231
52	0xbf001a75	-0.5004037
53	0x3ebac8e2	0.36481386
54	0xbb7ef5c9	-0.0038903824
55	0xbf5ad35c	-0.8547876
56	0x3f220684	0.6329119
57	0xbf373c46	-0.71576345
58	0xbf30c3b4	-0.6904862
59	0x3e46c16f	0.19409727
60	0xbc3be88d	-0.011469019
61	0xbf0227d2	-0.5084201
62	0xbebf6872	-0.37384373
63	0xbc5d720d	-0.013515961
64	0xbd764324	-0.060122624
65	0x3e6c96a1	0.23104335
66	0xbe12a1b7	-0.14319502
67	0xbca6333d	-0.020288104
68	0x3d508ada	0.05091367
69	0x3f372dc4	0.7155421
70	0x3eebcf0e	0.46056408
71	0x3ec6b6aa	0.38811237
72	0x3efb8f36	0.491327
73	0xbe1f06ff	-0.15530013
74	0x3f05aab8	0.5221362
75	0xbebcfcf6	-0.36911744
76	0x3de4f8f0	0.111802936
77	0x3f093519	0.53596646
78	0x3e8a1016	0.26965398
79	0x3ed633e6	0.4183647
80	0x3f35ff26	0.7109245
81	0x3f1b740c	0.6072395
82	0x3f210b54	0.6290791
83	0xbf50146e	-0.81281173
84	0x3eac8812	0.33697563
85	0xbf71bb5a	-0.944265
86	0x3f36a1bc	0.7134054
87	0xbf053c80	-0.5204544
88	0xbe6c88f7	-0.23099123
89	0x3ebc5e9a	0.36790925
90	0x3ebedb32	0.37276608
91	0x3f45e8ea	0.77308524
92	0xbefaa16a	-0.48951274
93	0x3f6afe60	0.91794395
94	0x3ca7f23c	0.020501249
95	0xbf2ad79f	-0.6673526
96	0x3f56dae2	0.8392774
97	0x3f1dc6dc	0.6163156
98	0xbf71fcbe	-0.9452628
99	0xbeba9fb2	-0.36449963
100	0x3ea3141a	0.31851274
101	0xbec3b96a	-0.38227397
102	0xbd88c4f0	-0.06678188
103	0x3d10cee6	0.035353564
104	0x3f06063e	0.52353275
105	0x3f7dcfac	0.9914501
106	0xbf044efe	-0.5168303
107	0xbee49fd6	-0.44653195
108	0x3eb7931e	0.3585443
109	0xbf03e2ba	-0.5151783
110	0xbdd67010	-0.10470593
111	0x3f48e308	0.7847142
112	0xbf00afda	-0.5026833
113	0xbeee7db6	-0.46580285
114	0xbed4ab12	-0.41536766
115	0x3ef8c8da	0.48590738
116	0x3f0cbdf6	0.5497736
117	0x3f25b2e6	0.647261
118	0xbf49d2ae	-0.78837097
119	0xbec1d666	-0.37858886
120	0xbf1d608c	-0.61475444
121	0xbdce4380	-0.10071468
122	0x3f12269c	0.57090163
123	0x3f7a6544	0.9781077
124	0xbf7c82ca	-0.9863707
125	0xbd1b63c6	-0.03793695
126	0x3eca7b8e	0.3954739
127	0xbf59e292	-0.85111344
